data/models/svm.model_02.npy (npy, 51920 bytes, 1 tensors)

array (column-major) f8 [1, 6480]
000000 08 3a 45 27 6e fc d3 bf a5 a8 8d ef 23 45 c5 bf
       -0.3122821219921268 -0.16617249676648274
000010 5c 28 54 af e8 ca df bf f2 50 5c ea 82 55 6e 3f
       -0.4967595779604659 0.0037028843825145314
000020 4f 62 ae f0 21 75 cd bf c0 01 c0 18 2d f1 c2 3f
       -0.2301371026230918 0.14798511227128408
000030 fc 70 ee 73 60 cd a4 3f 5c f9 33 66 74 24 85 3f
       0.04062940039804805 0.010323438042629966
000040 57 9d 6a 7a a5 bd cd 3f 87 cb f4 ae 13 b7 cc 3f
       0.23235004880300877 0.22433706324372002
000050 8c 18 ce c3 cb 68 d4 3f 52 b7 f2 12 54 f0 d4 bf
       0.31889623757923213 -0.3271684823074469
000060 d8 eb be 80 e1 d8 e7 3f e7 2c aa e1 38 7b 72 bf
       0.7452247156683098 -0.0045120450910289605
000070 5a 43 e1 5c ba 1b 85 3f 7f fe 85 b2 86 ee c4 bf
       0.010306793174238816 -0.16352924076999284
000080 6a 2d c1 e0 f0 49 d0 bf 6f 56 c6 4c dc ba 81 bf
       -0.25451299618426637 -0.008657189457873941
000090 84 a0 89 17 aa f1 d4 3f d1 72 d6 cb 31 15 8a 3f
       0.32725002573580064 0.012735737832195866
0000a0 74 2d 1b 58 ba ab ac 3f 95 6b d4 0d ca d2 de 3f
       0.0559976799537151 0.4816155562454523
0000b0 12 cd 57 83 ea 20 ce 3f 39 75 79 db 3f 76 cf bf
       0.2353795186350927 -0.24579618660474425
0000c0 73 48 ad 97 e6 e1 cc bf 25 78 11 34 14 85 91 3f
       -0.225643943844776 0.01710921829032243
0000d0 d4 0e 28 81 96 33 c7 3f bf 7a 59 96 92 32 b8 3f
       0.18126183802097862 0.09452167673723987
0000e0 87 66 90 ff 7d 75 b3 bf db 33 cc b4 82 86 b1 bf
       -0.07601153840405504 -0.0684587184334328
0000f0 0a 5b cf 86 35 ea cf 3f 33 6f e6 d8 b0 f5 b8 bf
       0.24933499414938637 -0.09749894423879084
000100 cc 95 65 bb 23 7e cb 3f a6 30 db 06 c6 66 d3 bf
       0.2147869744323273 -0.30314779920150625
000110 6c 8d 12 65 ba 5e de 3f 67 ac fd 8b b9 01 d9 3f
       0.47453174467428627 0.3907302729700803
000120 f7 f2 9b ac 16 09 d6 3f 39 8c 41 78 34 47 d0 3f
       0.3443047223698125 0.25434600585703354
000130 5b 82 1e 2e f9 ad dc bf 81 e4 e3 aa 34 cc e0 3f
       -0.44811849120927655 0.5249274575900388
000140 84 88 5f a5 09 d3 c7 3f a4 f7 44 67 be f8 6d bf
       0.18612785887586736 -0.003658649331696533
000150 be b1 92 84 f1 20 c7 bf cd 61 bc bb 25 1c cb bf
       -0.18069285367290705 -0.21179649035253903
000160 90 cc 2b 3e de 5e b5 bf 65 82 76 10 84 5f bd bf
       -0.08347882287835007 -0.11473870660712178
000170 a8 c8 f4 3c 92 c8 be 3f b7 1d 35 00 f8 73 ca bf
       0.12024797428310541 -0.20666408548480117
000180 53 9c e0 b6 d4 35 d2 3f 56 c3 72 f2 fd d5 db 3f
       0.28453557833785686 0.4349360339793312
000190 f0 33 c3 8b 66 74 d0 bf 06 06 6d 2e c0 1f 85 3f
       -0.2571045269840502 0.010314465920262538
0001a0 fa 69 4b 5a 1f 29 cd bf be 02 7d 5e 26 18 c1 3f
       -0.22781745823779415 0.1335494958275571
0001b0 da 4e 54 7b 01 e9 c3 bf 13 3b 09 4e 71 59 a1 bf
       -0.15554827234210827 -0.033885517860303825
0001c0 35 e5 0c e7 b1 84 cf 3f b2 5a 41 40 1f e9 cd 3f
       0.24623702794796434 0.2336768211123022
0001d0 20 30 37 ae 15 0f c4 bf 05 b2 62 9a 4e 27 c0 3f
       -0.15671034819240592 0.12619955576282407
0001e0 1b 89 f3 df 5e 3b db bf 2f 76 24 52 c8 a7 de 3f
       -0.4254986941360969 0.47899063131066816
0001f0 c9 70 7a e3 c8 a4 c9 3f 8f 1b f0 30 20 e6 bd 3f
       0.20034133059824047 0.11679269022725534
000200 3c 6c d9 b4 51 53 a1 bf 19 ff 6a 99 a7 31 a3 bf
       -0.03383879978783752 -0.0374882101800706
000210 38 26 c9 fb ea 69 d4 bf a4 07 3b db 43 42 56 bf
       -0.31896471584750286 -0.0013585722598894257
000220 6f 76 8b da 44 0b b6 bf 7c a4 ac d6 86 0e c2 bf
       -0.08610945067945307 -0.1410683201041002
000230 cf cd 59 6b 9d f7 6b bf 1a cc a5 44 7e a4 d0 3f
       -0.0034139704319444473 0.26003987029906883
000240 83 94 8a 01 b8 0d ab bf d5 05 fe ef d3 1d c6 3f
       -0.05283904093565985 0.17278527468083263
000250 7b 0b 2f a4 e0 89 d4 bf dd 23 cd b1 46 be d5 3f
       -0.32091537507601914 0.3397385345784281
000260 f9 7b e8 88 e0 03 e1 3f 6d c3 52 ff f4 96 d3 bf
       0.5317232774722235 -0.30608868535914874
000270 b8 00 2f e9 82 8f 2e 3f 96 10 03 91 bd b8 c9 bf
       0.00023315880807040445 -0.20095033245718658
000280 e5 4f dc c7 01 1d ca 3f 8d bc d9 37 f7 21 d3 3f
       0.20401022204225608 0.29894810156015056
000290 a9 59 96 6d fe e9 bf 3f b7 68 0e be 8f a1 ce bf
       0.12466421294661835 -0.23930546550838525
0002a0 9c 91 52 c2 8f 5f b5 3f d7 da 1e de 9f 7a b9 bf
       0.08348940366938112 -0.0995273511206095
0002b0 17 a2 44 ea f6 c0 cd 3f 9d 16 5f 6b e1 93 9c 3f
       0.23245130957481372 0.027907869509155792
0002c0 e8 90 e5 8a 19 07 e0 bf 15 87 3f 1e 53 b1 ad 3f
       -0.5008666718317984 0.05799350494613812
0002d0 2b cd 97 c2 fd ba d1 3f 9b 56 28 5e 0c 9b d2 3f
       0.2770380401918426 0.2907133979327711
0002e0 ac 76 3f 11 f0 5c c4 3f 30 6e 07 f6 a6 b8 d6 bf
       0.15908623544867362 -0.3550202753665159
0002f0 6d 70 8a a6 93 ea b8 bf 6e 7c f4 71 da b9 cd bf
       -0.09732935729920351 -0.23223429264269008
000300 ad 07 03 83 9e c1 dd bf 00 30 72 fe fd 51 b6 bf
       -0.46494257730602834 -0.08718860113202709
000310 dc 7c 0d a9 8e 25 c4 3f 15 7f a7 57 1d 47 d3 3f
       0.1573961568310328 0.30121549186695634
000320 2a b9 5d d8 5e 49 ac bf fb 35 0e 5d dd e9 c5 3f
       -0.05524727240741563 0.17119948428846485
000330 9a 90 51 10 e6 1f b6 bf 84 09 50 03 b5 25 cd 3f
       -0.08642423532870894 0.22771322881460432
000340 4c 31 de 43 1a e5 a7 3f 8c eb 57 bd 8a 14 8e bf
       0.04666978910890637 -0.01468761816339794
000350 02 d7 a9 fa 40 20 d1 bf b8 6b 67 4f 9e 2a d2 3f
       -0.26759361723758 0.28385122064872403
000360 d5 47 88 84 0a db a5 3f 26 b6 e8 29 e0 e9 c0 3f
       0.04268677585436335 0.13213731809939694
000370 07 03 df 64 1a d5 c1 bf d1 fc 21 0d aa 90 ce 3f
       -0.1393158905539382 0.2387898029446434
000380 b2 14 bf 83 f2 28 bc bf 00 fe a9 32 c2 b1 d4 3f
       -0.10999980656113698 0.3233495230451524
000390 d7 3c 53 09 2b 12 bb 3f f7 b4 da e7 1d f4 c0 bf
       0.10574597337403034 -0.13244985409747986
0003a0 33 c2 15 27 73 a2 c1 3f b9 0a 4e 6e c8 52 d8 3f
       0.1377700749249172 0.38005266925771825
0003b0 69 8b 2d 69 5d 44 c5 3f 23 7a 88 c2 93 47 c3 bf
       0.16614883075370848 -0.1506218623989791
0003c0 8d eb 2d 33 ca 0b da 3f 28 b2 b8 87 18 18 b4 3f
       0.40696959493623625 0.07849267304909147
0003d0 ae 2a 99 a9 77 d3 d3 bf b4 a2 c8 d3 04 94 b8 bf
       -0.30978194773039547 -0.09600858850957189
0003e0 14 dc a7 c1 ac 89 db bf 81 47 68 c5 b7 29 d7 3f
       -0.43027800475778233 0.3619212558561387
0003f0 d8 d8 7b 53 54 61 7b bf 42 6f 78 8e 3f dc cb bf
       -0.0066846174229253305 -0.21765894371571376
000400 3a 16 ad 64 13 d5 96 bf f5 0a 68 35 3c 76 c1 bf
       -0.022297194499762286 -0.13642075164542403
000410 56 25 b9 1d 87 85 ce 3f 7f f6 fe 6f fc d7 a0 bf
       0.23844994498567001 -0.032897843047504864
000420 ee 88 29 ad a6 13 d9 bf fc 43 27 5e a1 7d cd bf
       -0.3918244067227893 -0.23039643380482733
000430 5b b4 98 d7 18 d5 d4 3f cb e5 df 46 e4 9c 72 bf
       0.32550641111703776 -0.004544154840908597
000440 85 94 4f 08 4d 3f da bf 61 b0 94 43 4d d8 c4 bf
       -0.41011358081443233 -0.16285100746006534
000450 c3 e1 35 ee 8c 02 d1 3f b1 4a 2e 3f f6 c4 d0 3f
       0.2657806707643681 0.26202160043718964
000460 ad e9 0f c3 15 dd c2 bf 02 34 33 cc e7 7d d8 bf
       -0.1473719789936018 -0.3826846593991037
000470 87 69 bd ad 2e 39 b7 bf 2c b5 01 19 62 f8 de 3f
       -0.09071628324219293 0.4839101070600289
000480 66 cb 73 91 a4 71 d4 3f 86 a0 70 b5 a1 35 a8 3f
       0.319436208766254 0.04728417720645077
000490 72 c5 8d 27 71 45 c3 bf dd 37 13 b3 af 31 da 3f
       -0.15055670195901488 0.4092826126842491
0004a0 8c 1b 70 1a a5 35 b9 3f 7b a7 87 54 aa da 6d bf
       0.09847480674225845 -0.003644306827699615
0004b0 a4 c7 78 92 a8 e8 88 bf de e6 ff 12 12 8a d5 bf
       -0.012162510843243109 -0.3365521607916956
0004c0 15 f3 81 10 93 ca ca 3f 19 c4 dd d2 97 28 ad 3f
       0.2093070822337714 0.05695032547999563
0004d0 6c 00 86 b7 72 56 db bf bd 2f 92 aa fe 3d dc bf
       -0.4271513740750439 -0.4412838617070028
0004e0 0d 58 f3 38 33 2e a1 bf b8 df 26 79 3f 19 c6 3f
       -0.03355560369679731 0.17264550605409368
0004f0 33 be 2c 5d cb c4 bb bf 42 0f a3 19 94 b8 a7 bf
       -0.10847159409308275 -0.046330097321997346
000500 bc 47 f9 84 b3 ae 62 3f 45 af da 37 05 12 a0 bf
       0.002280569671520431 -0.0313874846154634
000510 cf aa a7 50 31 61 93 3f ff 4f af 31 9f 63 cd bf
       0.01892544798640011 -0.2296027176477082
000520 c6 2e 45 42 7d 6a b3 bf af 46 50 94 da 5f d4 3f
       -0.07584364765096571 0.31835045322177796
000530 73 e5 10 36 55 b2 db 3f 84 04 6e 38 63 d7 b5 bf
       0.432759573744611 -0.08531780364684677
000540 42 80 c8 30 2f 50 dd bf 6c 09 44 00 e6 fe ba bf
       -0.45801906360611977 -0.10545194155205245
000550 37 91 df f1 9e f8 bc 3f 11 8f 8b 64 95 b1 d3 3f
       0.11316865353689286 0.30771384066450574
000560 8b 62 7a ca e4 e7 de bf 7e 4b bb b3 54 36 c7 bf
       -0.482903669102179 -0.18134554649313012
000570 38 7e 28 6a e2 c1 92 bf 0d 73 91 c7 b3 94 d7 3f
       -0.018317735413914543 0.3684510659129934
000580 67 bd 2e 3a c6 d8 d0 3f 59 02 b9 f1 c2 fd ba bf
       0.26323085481541003 -0.1054345932143489
000590 6a 00 1d 22 32 8a b2 bf 27 d0 15 15 52 65 e0 3f
       -0.07242120106548247 0.512368241483732
0005a0 49 5f 11 74 b1 79 d3 3f bc a3 1a 55 58 7a d5 bf
       0.30430256209136936 -0.33559234915679403
0005b0 04 70 19 17 13 b6 dc bf 9f 5d d0 3e 96 e5 cf bf
       -0.44861294990346345 -0.24919393603407244
0005c0 a9 1a 5e 21 8c 45 9a 3f cd bf b4 41 90 18 a0 bf
       0.02565592721614488 -0.03143740465236498
0005d0 19 34 62 28 6a ee a7 3f 27 8f 4d 0f 81 43 97 bf
       0.04674083464588125 -0.022718445357340713
0005e0 da 11 ca 38 37 e1 d3 bf 29 72 e6 12 91 fe d1 3f
       -0.31062107606729017 0.2811625179836335
0005f0 d8 bd b0 d0 80 ff c6 bf 09 4c c5 a2 6c ee c2 3f
       -0.17967233838997632 0.1479011339930312
000600 10 ef 90 1f d5 cb d4 3f 44 be 3c d0 3b 5a be bf
       0.3249409492743647 -0.11856435617368627
000610 79 8b 1f 0a 8d 38 e1 3f bd cb 18 06 59 83 cb 3f
       0.5381531903952769 0.21494591520021614
000620 a9 31 b7 8e ad 2f ac bf 3c 2c f2 55 94 e6 a1 bf
       -0.0550512539590245 -0.03496230649133067
000630 0f 5d 84 7f 2b e4 df 3f 06 89 d3 7c 03 e0 ce bf
       0.498301386383404 -0.24121135325464865
000640 e9 2e f2 f7 58 dc d6 bf fa 30 f1 0b 15 98 aa 3f
       -0.3571989461276944 0.05194154520776979
000650 1f d6 4d 83 ec 41 d9 3f 90 18 cd f6 da 50 c2 3f
       0.39464867422734246 0.1430925088008661
000660 15 3f 47 8d 2a 6a cf bf 54 69 99 7b 65 48 d8 bf
       -0.24542743585924912 -0.3794187266372735
000670 cd 8d 31 47 7a dc cf 3f 5c 26 8f 74 de 60 bb 3f
       0.24891594387291463 0.10694685311968882
000680 ec 0e fa c3 fc 15 cf bf 63 fd ce 0e 70 86 d9 bf
       -0.2428585011403962 -0.3988304276098999
000690 45 8a d1 cf 02 5b b8 3f dc 98 20 f9 2f b9 ad 3f
       0.09513871740049591 0.058053492699672055
0006a0 ea f4 2c 30 a4 76 d0 3f dc 1d 98 a9 22 f8 c1 3f
       0.25724129395150774 0.14038499146430083
0006b0 c4 03 88 aa 06 71 c7 3f 4f 24 83 46 32 bf a6 bf
       0.18313678099369046 -0.04442746268029706
0006c0 d5 ed e9 bf 48 24 ce 3f 3b c7 3e 32 6c 18 d4 bf
       0.23548230524816796 -0.3139906397510576
0006d0 59 91 ca cd cb 28 b6 3f ca b8 45 3e 9a 05 d1 3f
       0.08655999921990566 0.2659669502380778
0006e0 96 af 69 2c c8 7e 91 3f 79 89 73 70 36 5e e1 3f
       0.017085197172874787 0.542750568038442
0006f0 bf a5 e0 4b 13 6c c7 3f 7e 78 40 b1 01 38 ce bf
       0.18298569874722934 -0.23608418612360887
000700 7d f9 ec 46 7e cb ba 3f cd f7 f1 c1 15 f2 b5 bf
       0.10466756087860137 -0.0857251738070481
000710 c9 df 87 61 e6 92 b1 bf 19 9a 9e 43 2d ff c1 bf
       -0.0686477649795726 -0.1405998783277063
000720 78 0c 51 6d 29 53 e0 3f 68 22 2d 6d 2a 9f b9 bf
       0.5101515898790145 -0.10008492627560772
000730 7d d9 db 88 e6 ca af bf 87 4d f6 3f 13 a3 dd bf
       -0.062094883161921445 -0.46307831999111965
000740 26 fa 10 f1 ee cd bf bf 79 d8 95 a7 06 7c c3 3f
       -0.12423604379089478 0.15222247298123984
000750 76 90 56 ab 86 82 c4 3f 99 46 82 8b d3 ab b7 bf
       0.16023333898658948 -0.0924656119916797
000760 6b 07 2b 20 ce 48 d6 bf 1c 7f e4 1e 73 94 94 bf
       -0.3481936754361558 -0.020097540627033714
000770 20 7d a2 e3 9e fb d1 bf 41 b1 de e6 2e 31 cd 3f
       -0.2809827063556032 0.22806345246261553
000780 f5 2f c4 55 fe 26 c6 3f 0c 76 c7 51 37 c5 b9 3f
       0.173064987066368 0.10066552874146611
000790 46 e0 f1 e9 65 3b a8 3f dd b9 cd 16 e6 00 d4 3f
       0.047328171546667394 0.31255485751071693
0007a0 6f 7e 3c e5 8c f9 cd 3f cb 47 fb ec 43 8c 89 bf
       0.23417817300013463 -0.01247456614456501
0007b0 8f cb 74 62 40 5c cf bf 47 d2 20 15 04 3b bc bf
       -0.24500279242928655 -0.110275511892561
0007c0 85 ef a2 65 bc 05 c9 bf 28 bc c9 55 83 a4 d1 3f
       -0.19548754656522874 0.27566607835518875
0007d0 e4 76 61 61 2a 1b c1 3f 19 99 5b 1f 43 8f b4 3f
       0.13364152674596774 0.08031100764819533
0007e0 3e 4d 70 7b 04 77 bb 3f 80 6f 8f b0 56 79 cf bf
       0.1072848130573236 -0.24589046116932067
0007f0 c8 2a 60 45 87 42 d5 bf 8b 0f 2a 04 7c 2a d8 3f
       -0.3321855714317903 0.3775930443446149
